data.pth (torch, 6807 bytes, 6 tensors)

l1.weight f4 [8, 71]
0	0xbdb1d885	-0.08683876
1	0x3d8b9c52	0.06816925
2	0xbe3e982a	-0.18612733
3	0xbd4c8976	-0.04993578
4	0xbf1465d2	-0.57967865
5	0x3f5135c6	0.81722677
6	0x3eb6b6da	0.3568638
7	0x3ec050ef	0.37561747
8	0x3f63a3e2	0.8892194
9	0x3e4c722f	0.19965433
10	0xbefe5824	-0.4967662
11	0x3ef63521	0.4808741
12	0x3e6e10e8	0.23248637
13	0x3f62849a	0.88483584
14	0x3d7e653b	0.06210826
15	0xbd970c43	-0.073753856
16	0x3f078c1c	0.52948165
17	0xbf38232c	-0.7192867
18	0xbedf6db9	-0.436384
19	0x3eea8c30	0.4581008
20	0xbe093b7c	-0.13401598
21	0xbf041c3a	-0.5160557
22	0x3f908866	1.1291625
23	0xbe7621b0	-0.24036288
24	0xbe5bc829	-0.21463074
25	0x3f03fc16	0.5155653
26	0xbe187a42	-0.14890388
27	0x3f2fb3ad	0.6863354
28	0x3f4b62b4	0.79447484
29	0xbd4f88af	-0.05066746
30	0x3ed53c6c	0.4164766
31	0x3e5d20df	0.2159457
32	0xbf058321	-0.5215321
33	0x3f27ec9e	0.65595424
34	0xbd6a5927	-0.05721393
35	0x3f1db084	0.61597466
36	0x3f2c2e3e	0.6725806
37	0x3f016b0f	0.50553983
38	0x3f304cae	0.68867004
39	0x3f1d96e9	0.61558396
40	0xbe8bde0f	-0.27317855
41	0xbf61dbbc	-0.88225913
42	0x3eaabd7a	0.33347684
43	0xbf0d5933	-0.5521423
44	0xbea3c775	-0.3198811
45	0x3da8b69b	0.08237954
46	0x3d1bda03	0.03804971
47	0x3df4eb5f	0.11958956
48	0x3e0953bc	0.13410848
49	0x3d702d0d	0.058636714
50	0x3eb13e65	0.34617916
51	0x3f827fae	1.0195215
52	0x3f0f48b5	0.5597032
53	0x3e615668	0.22005618
54	0xbe8ea3ca	-0.27859336
55	0x3f1f4ee8	0.62229776
56	0xbdf2823d	-0.11841247
57	0x3f834b09	1.0257274
58	0x3d4452b5	0.047930438
59	0xbe85cf21	-0.2613459
60	0xbb22e328	-0.0024854634
61	0xbe9d3e39	-0.30711535
62	0xbde23e89	-0.11047084
63	0x3ecea97a	0.40363675
64	0x3ed07fbf	0.40722463
65	0xbef116ae	-0.47087616
66	0x3ec232e3	0.37929448
67	0x3e92296a	0.2854722
68	0x3f27e67a	0.65586054
69	0xbef50e07	-0.47862265
70	0x3eb477a4	0.3524753
71	0x3f0cbcc7	0.5497555
72	0x3ee86452	0.45389038
73	0xbd93fbdb	-0.07225772
74	0x3e4ac42a	0.19801393
75	0xbe9baf82	-0.3040734
76	0x3e14696f	0.14493345
77	0x3d657422	0.056018956
78	0xbee88f55	-0.45421854
79	0xbf7d3251	-0.989049
80	0xbf5f14f6	-0.8714136
81	0xbf899fe9	-1.0751926
82	0xbd123c28	-0.0357019
83	0x3f48bb30	0.78410625
84	0x3d031f41	0.032012228
85	0x3f6f96b5	0.93589336
86	0xbe681b2a	-0.22666612
87	0xbf12186b	-0.5706851
88	0x3f22220b	0.63333195
89	0xbe53b3f0	-0.2067411
90	0xbedcaafa	-0.43099195
91	0xbf27c793	-0.655389
92	0x3e1be810	0.15225244
93	0xbf4dcfd0	-0.8039522
94	0xbd8d5c3a	-0.069023564
95	0x3d008b8b	0.03138308
96	0xbe02000f	-0.12695335
97	0x3f6f829e	0.9355868
98	0x3ea73214	0.32655394
99	0x3f986d11	1.1908284
100	0x3f1eb8f5	0.6200097
101	0xbed1b458	-0.40957904
102	0x3f36ba9b	0.7137849
103	0x3fb0afa5	1.3803602
104	0xbf5769c9	-0.8414579
105	0x3f05c85a	0.5225884
106	0xbf4e51da	-0.80593646
107	0xbf4b3f63	-0.79393595
108	0xbf4a3a74	-0.7899544
109	0x3e56b12f	0.20966028
110	0xbf5f16bf	-0.8714408
111	0x3f485f84	0.78270745
112	0x3f7a1d24	0.97700715
113	0xbe0032c6	-0.12519369
114	0x3e5901e2	0.21192124
115	0xbf0e532e	-0.5559567
116	0x3f5bd2f4	0.85868764
117	0x3ea1f36e	0.31631035
118	0x3eb17284	0.3465768
119	0x3d99165c	0.07474968
120	0x3f8ba16a	1.0908635
121	0x3e784ed3	0.24248819
122	0xbdccc860	-0.09999156
123	0xbf1b113b	-0.60573167
124	0x3eee648b	0.46561083
125	0xbebe0a30	-0.37117147
126	0xbe1f5fba	-0.1556386
127	0x3f4aec6e	0.79267013
128	0xbe5d6bd6	-0.21623167
129	0x3ecc5005	0.399048
130	0x3f48d07e	0.78443134
131	0x3e6ea8a1	0.23306514
132	0x3f879e78	1.0595236
133	0x3eda0322	0.42580515
134	0xbeb64be0	-0.35604763
135	0xbe42343e	-0.18965241
136	0x3e2a416a	0.16626516
137	0x3f6b68b1	0.9195662
138	0x3d0be9b0	0.03415841
139	0xbde82acc	-0.11336288
140	0xbe38d14d	-0.18048592
141	0x3ef7df64	0.4841262
142	0xbe6f144a	-0.23347583
143	0xbc9f5034	-0.019447424
144	0x3f07383f	0.528202
145	0x3ebd56bc	0.36980236
146	0x3f0bdaee	0.54630935
147	0x3f2edf16	0.6830915
148	0x3ea9e470	0.33182096
149	0x3e871c78	0.26388907
150	0x3f7ba87f	0.9830398
151	0x3f3f81f3	0.7480766
152	0x3e323407	0.1740266
153	0xbd8a85c2	-0.067637935
154	0xbf47b5bd	-0.78011686
155	0xbf532ce3	-0.82490367
156	0x3ed8c95b	0.42341122
157	0x3eb7723e	0.35829347
158	0x3f639a0b	0.88906926
159	0xbf8c123b	-1.0943063
160	0x3f0a4cc9	0.54023415
161	0x3f0c1062	0.547125
162	0xbf40a04a	-0.7524458
163	0xbf3a05e6	-0.7266525
164	0x3f9f7277	1.2456807
165	0x3eb1cd78	0.34727073
166	0xbf1524fa	-0.58259547
167	0xbe217b40	-0.15769672
168	0xbf5985fa	-0.84970057
169	0x3e498921	0.19681217
170	0xbf44492f	-0.7667417
171	0x3e9277a7	0.28606912
172	0x3ed4bb56	0.41549176
173	0xbf47a9ad	-0.7799328
174	0xbf4ef27f	-0.8083877
175	0x3f43eeaf	0.7653608
176	0xbeabe72c	-0.33574808
177	0x3f27b994	0.65517545
178	0x3f459275	0.771766
179	0x3f465605	0.77475005
180	0x3e8c5632	0.27409512
181	0x3f03401c	0.512697
182	0x3d97fe40	0.07421541
183	0xbf532855	-0.82483417
184	0x3f430d77	0.7619242
185	0xbf27a65f	-0.6548824
186	0x3fa0618c	1.2529769
187	0x3eb5405c	0.35400665
188	0xbed4a94c	-0.41535413
189	0xbde56f46	-0.11202864
190	0x3ec66aaa	0.38753253
191	0xbf415f45	-0.75535995
192	0x3dc742ee	0.09729563
193	0x3f43c886	0.7647785
194	0x3f76ce09	0.96408135
195	0x3dbf5d4f	0.09343969
196	0x3f00e28d	0.5034569
197	0xbd1d0acc	-0.038340375
198	0x3e44b532	0.19209746
199	0x3f7a343c	0.97735953
200	0xbeb1afcc	-0.34704435
201	0x3d2a664f	0.041601475
202	0x3ec4940a	0.38394195
203	0xbf47b4cc	-0.7801025
204	0xbe57cbec	-0.21073884
205	0x3f0a7dec	0.5409839
206	0x3e97622f	0.29567096
207	0xbf119760	-0.56871605
208	0xbe45fce8	-0.19334757
209	0x3f14b480	0.5808792
210	0xbd2150fa	-0.039383866
211	0x3ea3bf54	0.3198191
212	0x38a52495	7.874627e-05
213	0x3e4bf07b	0.19915955
214	0x3e647ae9	0.22312512
215	0xbb2feca4	-0.002684393
216	0x3e9d5cf0	0.30734968
217	0x3f1dce4a	0.616429
218	0xbf17ccfe	-0.5929717
219	0xbeec3d64	-0.46140587
220	0x3f792e83	0.97336596
221	0x3fac4d0d	1.3461014
222	0x3f708937	0.93959373
223	0x3f68335f	0.90703386
224	0x3d4d933f	0.050189253
225	0xbf0aa0b7	-0.5415148
226	0xbfa01c01	-1.2508546
227	0xbe6f5e67	-0.23375855
228	0x3ed9b34a	0.425196
229	0x3e358e21	0.17729999
230	0x3f9b32fb	1.2124933
231	0x3f11ef5b	0.5700585
232	0xbe2f5a44	-0.17124277
233	0x3f82607b	1.0185694
234	0x3f155845	0.58337814
235	0xbf1138ef	-0.567275
236	0x3e6bc629	0.23024811
237	0x3f8d174c	1.1022735
238	0x3e34bf50	0.17651105
239	0xbe960304	-0.29299176
240	0xbdce981c	-0.10087606
241	0xbf9a3ba8	-1.2049456
242	0x3f0ad7ae	0.5423535
243	0xbdf3583d	-0.118820645
244	0xbf03d238	-0.51492643
245	0xbf8c47da	-1.0959427
246	0xbec2a969	-0.38019875
247	0x3e724a42	0.2366114
248	0xbe8ef49f	-0.27921006
249	0xbed5cc48	-0.41757417
250	0xbee31a41	-0.44355968
251	0x3c8af827	0.016964031
252	0xbeef3bec	-0.46725404
253	0xbea5d0ed	-0.3238596
254	0x3f0c11b8	0.54714537
255	0x3ed82f6d	0.42223683

l1.bias f4 [8]
0	0x3f5a4852	0.852666
1	0x3f57680e	0.8414315
2	0x3f47b547	0.7801098
3	0x3f25500e	0.6457528
4	0x3f65dd33	0.8979065
5	0x3f6194bf	0.88117594
6	0x3efff71f	0.49993226
7	0x3f9b147f	1.211563

l2.weight f4 [8, 8]
0	0x3dca4a2f	0.09877431
1	0x400b2a54	2.1744585
2	0xbf87e8d2	-1.0617926
3	0xbea012f4	-0.3126446
4	0x3f7f4998	0.9972167
5	0x3fb4528a	1.4087689
6	0xbf3012bf	-0.68778604
7	0x3f9668cf	1.1750735
8	0x3f58ad46	0.84639394
9	0xbe5408e9	-0.20706524
10	0x3ff17efc	1.8866878
11	0xbf39a169	-0.7251192
12	0x3d8a0677	0.06739514
13	0x3f4eca94	0.8077786
14	0x3fbf394f	1.4939364
15	0xbf4c925f	-0.79910845
16	0xbeb166ca	-0.34648734
17	0xbf195e58	-0.5990958
18	0x3f4933da	0.78594744
19	0x3fa69af1	1.3016034
20	0x3fbf07eb	1.4924291
21	0xbfe16517	-1.7608975
22	0x3fb294e9	1.3951694
23	0x3f2242a0	0.6338291
24	0x3ee95ba5	0.45577732
25	0xbfa6a81b	-1.3020052
26	0x3fbe1cd3	1.4852546
27	0x3fb6bfef	1.4277323
28	0xbef31fa4	-0.47485077
29	0x3fa4e980	1.2883759
30	0xbf409e4e	-0.75241554
31	0x3f423b81	0.75872046
32	0x3fb5344b	1.4156584
33	0x3f79b903	0.9754793
34	0x3f87ba61	1.0603753
35	0xbfcc0e99	-1.5941955
36	0x3db791a4	0.089633256
37	0x3f8a2153	1.079142
38	0xbea24389	-0.3169215
39	0x3f9989a5	1.1995131
40	0x3fe578da	1.7927506
41	0xbf53c9b1	-0.8272963
42	0x3f2f354a	0.6844069
43	0x3eba4e28	0.36387753
44	0x3fd07f6b	1.6288885
45	0x3e36b7a2	0.17843488
46	0xbf955ca6	-1.1668899
47	0x3f41d5a1	0.75716597
48	0xbecd168d	-0.40056267
49	0x3f07f744	0.5311167
50	0x3edc9667	0.43083498
51	0x400f839f	2.2424085
52	0x3f286ba4	0.65789247
53	0x3f6f98c7	0.93592495
54	0x3f32499b	0.69643563
55	0xbfbebcdd	-1.4901386
56	0xbef72cfb	-0.48276505
57	0x3f32c736	0.6983522
58	0x3f03813d	0.51369077
59	0x3ec50d9b	0.38486943
60	0xbf96108e	-1.1723802
61	0x3f39e3cc	0.72613215
62	0x3f0dd031	0.553958
63	0x4002f836	2.0463996

l2.bias f4 [8]
0	0x3ea75e3c	0.32689083
1	0xbd278376	-0.040896855
2	0x3f24ae2d	0.6432827
3	0x3ead7b56	0.3388316
4	0x3e8afd2a	0.27146274
5	0x3f0f7a71	0.56046206
6	0x3ec1b7ab	0.3783544
7	0x3f60336c	0.87578464

l3.weight f4 [24, 8]
0	0xbef10f27	-0.47081873
1	0x3f062e8a	0.5241476
2	0xbf413569	-0.7547212
3	0xbee2477b	-0.4419516
4	0x3eeb12fa	0.45912915
5	0xbfa2e627	-1.2726487
6	0x3e9d3737	0.30706188
7	0x3e93e118	0.2888267
8	0xbfb80b82	-1.4378512
9	0x3f3f76fd	0.74790937
10	0x3f071929	0.52772766
11	0xbd8361e1	-0.06415153
12	0xbfbe1bad	-1.4852196
13	0xbf17fc71	-0.5936957
14	0xbd228406	-0.03967669
15	0xbf868961	-1.0510675
16	0xc0018658	-2.0238247
17	0xbf64d894	-0.8939297
18	0x3eb682ac	0.3564657
19	0x3eec5879	0.4616125
20	0xbf8fa3da	-1.1221879
21	0x3f1144eb	0.56745785
22	0x3ef4a7a6	0.47784156
23	0xbf6dc183	-0.928734
24	0xbf382f8c	-0.7194755
25	0x3e2dd6d4	0.16976482
26	0xbf9f226f	-1.2432383
27	0x3f0e5ba1	0.55608565
28	0x3ca52cb3	0.020162916
29	0x3e9d51d5	0.30726495
30	0x3eb108ba	0.3457697
31	0xbf7324cc	-0.9497802
32	0xc01ae55a	-2.4202485
33	0xbf7fa192	-0.9985591
34	0x3f2d20e5	0.6762832
35	0x3e4816db	0.19539969
36	0xbfca6046	-1.581063
37	0xbf8a46ed	-1.0802895
38	0xbdc61e6e	-0.09673773
39	0x3f3c4112	0.7353679
40	0xbf174644	-0.5909159
41	0x3d6e5c77	0.05819365
42	0x3d54fc64	0.05199851
43	0xbf2b35db	-0.6687905
44	0x3e6a3916	0.22873339
45	0xbc91088d	-0.017704273
46	0xbfe5ff81	-1.7968599
47	0x3ee924d0	0.45535898
48	0xc000380d	-2.003421
49	0x3dde3276	0.108494684
50	0x3f10c4b1	0.5655013
51	0xbcdd249c	-0.026994996
52	0xbe71bba5	-0.23606737
53	0x3ec819b7	0.3908212
54	0xbdeb5088	-0.114899695
55	0xc00f3bf4	-2.2380342
56	0x3d63113a	0.05543635
57	0xbfbfc7cb	-1.4982847
58	0x3eb21f65	0.34789577
59	0x3d65bb12	0.056086607
60	0xbff5fe7a	-1.9218285
61	0xbfc46ae7	-1.5345124
62	0x3df104f5	0.117685236
63	0x3ec891af	0.39173648
64	0xbec0192a	-0.375192
65	0xbfe8b83c	-1.8181224
66	0x3eac788e	0.33685726
67	0x3e913bb0	0.2836585
68	0xbf1d39fa	-0.6141659
69	0x3ec12f78	0.37731528
70	0x3d2e3075	0.04252668
71	0xbec2c599	-0.3804138
72	0xbfcff767	-1.6247376
73	0x3e41e7cb	0.18936078
74	0xbdb327c9	-0.08747823
75	0x3e64d6bd	0.22347541
76	0x3f02c2e4	0.5107863
77	0x3ee6a6d1	0.45049146
78	0xbf1b4545	-0.6065257
79	0xbf1123d1	-0.56695276
80	0x3f32ae6a	0.69797385
81	0xbfd1da90	-1.6394825
82	0xbfc1de5d	-1.5145985
83	0xbd9d2910	-0.07673848
84	0x3f0a9836	0.54138505
85	0xc0175849	-2.3647635
86	0xbfa350be	-1.2759016
87	0x3ed7a3f9	0.4211729
88	0x3ec539c2	0.38520628
89	0x3e84f6fc	0.25969684
90	0xbfbd557c	-1.4791713
91	0xbe63e879	-0.2225665
92	0x3e969a84	0.2941476
93	0x3ed61aad	0.41817227
94	0xbe942881	-0.28937152
95	0xbfc01683	-1.500687
96	0x3e832209	0.25611904
97	0xbfc517d9	-1.5397903
98	0x3dd85167	0.10562401
99	0xbfbd2851	-1.4777929
100	0x3db8914c	0.09012088
101	0xbfd89bcf	-1.6922549
102	0xbef0f874	-0.47064555
103	0x3f33766d	0.7010258
104	0xbf367307	-0.7126927
105	0xbe6e0c8a	-0.23246971
106	0x3f384303	0.7197725
107	0xbf8ceb29	-1.1009265
108	0xbf8aa1c2	-1.0830615
109	0xbdf2536b	-0.11832317
110	0x3efc9148	0.4932959
111	0xbfd8dd8a	-1.6942608
112	0x3e0c402c	0.13696355
113	0xbf777505	-0.9666293
114	0xbfccdaea	-1.6004307
115	0x3eb69261	0.35658553
116	0xbdcdd92f	-0.1005119
117	0xbf92ceb4	-1.1469331
118	0x3f11c31b	0.5693833
119	0x3efe5ccc	0.49680173
120	0x3e300d5e	0.17192599
121	0x3eadf2d6	0.33974332
122	0xbfdc0e5d	-1.7191883
123	0x3e9a43cf	0.3012986
124	0x3f0c8603	0.54891986
125	0xbfe66801	-1.800049
126	0xbf598ef9	-0.84983784
127	0x3ea7543e	0.3268146
128	0xc0183325	-2.3781216
129	0x3ea8820b	0.32911715
130	0x3e91ca24	0.28474534
131	0x3d9b075d	0.07569764
132	0x3e8effbe	0.2792949
133	0xbf995e3d	-1.1981884
134	0xbef38b61	-0.47567275
135	0x3ec317ff	0.38104245
136	0x3d344dc2	0.044019468
137	0xbf823ae4	-1.0174222
138	0x3e7838b4	0.2424038
139	0xbe22223c	-0.15833372
140	0x3d210897	0.039314833
141	0x3f1aba3c	0.6044042
142	0xbf9a06a2	-1.2033274
143	0xbfaeb5bd	-1.3649212
144	0xbf24a4a2	-0.6431371
145	0x3f363245	0.71170455
146	0xbdba4cee	-0.090967044
147	0xbfb84a6a	-1.4397709
148	0x3debc28b	0.115117155
149	0x3d160911	0.03662974
150	0x3e121908	0.14267361
151	0xbfa7c489	-1.3106853
152	0x3f2099ce	0.6273469
153	0xbfd08cdb	-1.6292986
154	0xbfe607d1	-1.7971135
155	0x3e1f979d	0.1558518
156	0x3e7874ec	0.24263352
157	0x3e18fd66	0.14940414
158	0xbfa95506	-1.3229072
159	0x3dbc0aee	0.09181772
160	0xbf5a7511	-0.8533488
161	0xbde535b5	-0.111918844
162	0xbfca8031	-1.5820371
163	0x3f4d9741	0.8030892
164	0x3eecf953	0.4628397
165	0x3eee20f6	0.46509522
166	0xbfa0f88f	-1.2575854
167	0x3ead97fa	0.3390501
168	0xbe739a67	-0.23789369
169	0x3e4a2c24	0.19743401
170	0x3ed1ea00	0.4099884
171	0xbf9e97e5	-1.2390105
172	0xbf5decb7	-0.86689323
173	0xc0066d98	-2.100439
174	0x3f16c642	0.5889627
175	0xbe219bd1	-0.15782095
176	0xbfa7e8c9	-1.3117915
177	0x3f178dce	0.5920075
178	0xbef25933	-0.4733368
179	0x3f318ec6	0.6935848
180	0xbf85afd4	-1.0444283
181	0xbfa42e1b	-1.282657
182	0x3ebfcf1b	0.37462696
183	0xbe54d3ae	-0.20783874
184	0x3f2e9b2b	0.6820552
185	0xbfcee908	-1.6164865
186	0x3cffc49b	0.031221678
187	0xbfbd38f7	-1.4783009
188	0xbda32282	-0.07965566
189	0x3d8084d1	0.06275333
190	0x3e976761	0.2957106
191	0xbf2ecfbc	-0.6828573

l3.bias f4 [24]
0	0xbe26c631	-0.16286542
1	0xbdee562c	-0.1163753
2	0xbd6830c2	-0.056687124
3	0xbeaa2c57	-0.33236954
4	0x3f0271d9	0.5095497
5	0x3e4206fd	0.18947978
6	0x3e1f358d	0.15547772
7	0x3cb17af2	0.02166507
8	0xbd24e791	-0.0402599
9	0xbf09ca70	-0.5382452
10	0xbe9a812c	-0.30176675
11	0x3a5ee390	0.00085025374
12	0x3d9a071d	0.07520888
13	0x3e1bea66	0.15226135
14	0x3e1f8fcb	0.15582196
15	0xbeec1303	-0.46108255
16	0xbe35aa90	-0.17740846
17	0xbd1efde3	-0.038816344
18	0x3e5b7ee2	0.2143512
19	0x3ef054cf	0.46939704
20	0xbc75f1cc	-0.015011262
21	0x3e02fa9d	0.12790914
22	0xbdccb519	-0.09995479
23	0x3ec7121a	0.38880998
